audio/optimal_model.pth (torch, 7552 bytes, 4 tensors)

layer1.weight f4 [64, 15]
00000000: 7071 fabd c8c5 473e d9c2 59bd 4eeb 87be
00000010: 3e22 cfbc 12e9 43be 4b76 8c3d 1e13 073e
00000020: 0140 4cbe fafb d23b c33c 73be 4e7a 80be
00000030: 3340 6abe bb61 02be f350 20be 0c76 0e3e
00000040: f013 e93d 0e41 ae3b dc6e 833e 5f70 a03d
00000050: 5ac2 953e e477 a53e efa6 693e bdd5 053b
00000060: 321b ed3d 8e11 34be 8997 83bc 9902 0e3c
00000070: 4de6 053d a2e8 9ebb c9d8 013e b7ba 29be
00000080: ca48 55be 173e fcbd e156 2dbe 7e04 c0be
00000090: 120b 51be 0439 10bd 0f01 9dbe 06a2 52bc
000000a0: 00d6 26be 6114 70be 8cfe f5bd 6b7d fdbd
000000b0: fe3f 273e cd4a b93d bc42 923e f5bb 3a3e
000000c0: 5bff 9bbb 4832 8b3c 832f bf3e 8034 22bc
000000d0: 101c 873e 1b93 1fbe df68 5fbd 8cc3 8f3e
000000e0: c564 ba3c a559 0bbe 38e4 973d 730b 70bd
000000f0: 1509 37be 2e00 183c 6e53 9e3d 781d 883e
00000100: df83 af3d 4998 283e b8cc 383e da20 923e
00000110: 3c93 e1bd 03a3 aa3d 340c 463d b23c 183e
00000120: 69a5 7abd 12c4 013e 769b 5ebe a4db 3d3e
00000130: 974a b4bd b551 0f3d 30b5 59be e1db d03d
00000140: 62c7 61be ad41 08be 32d6 a9be 69d1 8dbe
00000150: f877 afbd dcfc 183e d73f c2bd 9967 843e
00000160: fd8f e13d 6643 c9bc bc56 9c3e 8016 223e
00000170: 90da b9b9 1c93 373e 5d60 d73d 1d54 123e
00000180: 80a2 4b3e c1db 0a3e d1db 5cbd 7237 9cbd
00000190: 6b86 25bd 3873 5d3e 54d1 263e 1315 063e
000001a0: c0f9 d8bd facb 37bd d544 0bbe 2a48 b9bd
000001b0: a929 fdbd 430b 58be cf0f 36bd 6e3f 803e
000001c0: 1a1e 2b3e 256a 283e aa1b b23d 4091 4f3d
000001d0: cbfd 98bd c0af 6ebe 4000 d03c a73b bcbb
000001e0: 7263 5abe 3199 93bd c105 8fbe 0137 413d
000001f0: 85cd b13d 6bf8 003e 11bf 34be 6d70 77be
00000200: c3e8 69be 3692 09be b43b 583e 6920 2bbe
00000210: 9a17 7d3e 879f b43d e4ea 67be 1fa8 9a3b
00000220: 6017 18be b125 2f3e 8947 dc3d ccc6 22bd
00000230: a950 81be 6bf5 003e 71cc 8c3e 7500 b43c
00000240: 98b9 093d 2043 2cbe a3c1 5dbc b6de 983e
00000250: 30b9 85be b3e1 333e 897c 4bbe 12d8 94be
00000260: 5cc2 74bd 2028 2e3e 6b8f 1cbe 8e52 8dbd
00000270: 5ee7 f73c 12c4 db3d 3091 92be 41c7 8dbd
00000280: 4c6f 0abe 61c0 8d3e da74 02be 0adf 4dbb
00000290: d848 49be 6f83 c33d 3af1 6abe d0dd 413e
000002a0: fa06 75be 728b 45be de99 663e 2003 a83d
000002b0: 350a 853d 4bb7 d1bc b68a b73c 2202 493c
000002c0: 9500 5f3e 80af 49be 2a44 5dbe 7a90 f63d
000002d0: ba9e 81be 1951 9cbe 3db3 62bd a8c5 e4bd
000002e0: c7b4 47bd 461d 253e d92d eb3c 9e16 13bd
000002f0: 8a12 423e 236a 373e 0a06 14be c6cf 30be
00000300: 12b4 a53d 1b6f 973d 4c0f 1abe 369d 35be
00000310: d50f 31be b7c0 6f3e 3de9 5abe 3961 1a3e
00000320: 3b6b b8bd 9b08 62be 30f1 3a3e 6a53 7a3d
00000330: 7765 bbbd 0837 54be a1de 253e 183e ac3d
00000340: bc5e 3cbe 47fd 01be 0585 5a3d ae28 073e
00000350: 1dd1 9c3e 423d 86bd c228 d13e 2745 7e3d
00000360: 2683 813e 13b3 b33e c4e1 5a3e 4781 42bc
00000370: b136 fdbc 296e e9bd 9a04 08bd 1192 023e
00000380: 6217 f6bd 1609 9dbd 3c69 6fbc 7bea 98be
00000390: a493 6dbe 95fa c63d 5332 a13d ff20 e53d
000003a0: dc4f 713b 3379 4c3e e092 2a3d 0055 4cbe
000003b0: c327 a7bc 03e9 88be b2bd 12bd ef14 7f3d
000003c0: 9a46 083e ba96 f03d e8cb a3be be75 1cbe
000003d0: 1d24 3dbd c4fc 0dbe 4d7f bdbc ee2e 0fbe
000003e0: f173 1d3d 204b 093e d13e 4dbe 8f5d a3bd
000003f0: b0f2 50be 2bc5 1e3e e0a1 febd b64f f4bc
-0.12228668 0.19509041 -0.053164337 -0.2654671 -0.025284883 -0.19131878 0.068585 0.13190886
-0.1994629 0.0064387294 -0.23753648 -0.2509331 -0.22876053 -0.12732594 -0.1565588 0.13912219
0.11380756 0.0053178137 0.25670516 0.07833933 0.2924984 0.32318032 0.22817586 0.0020421587
0.11577453 -0.17584822 -0.016063469 0.0086676115 0.032690335 -0.0048495093 0.12680353 -0.16575132
-0.20828548 -0.1231653 -0.16927673 -0.37503427 -0.20414379 -0.035210624 -0.3066487 -0.012856012
-0.16292572 -0.23445274 -0.120114416 -0.12377437 0.16333005 0.0904747 0.2856654 0.18235762
-0.0047606654 0.01699175 0.37340936 -0.009900212 0.26388597 -0.1558346 -0.054543372 0.28078878
0.022753129 -0.13608415 0.07416576 -0.05860467 -0.17874558 0.009277387 0.07730757 0.26584983
0.08570074 0.16464342 0.18046844 0.2854069 -0.11014411 0.08331873 0.04835148 0.14866903
-0.061192904 0.12672451 -0.21738991 0.18540817 -0.088032894 0.03499003 -0.21260524 0.101981886
-0.22048715 -0.13306303 -0.3317123 -0.2769883 -0.08567804 0.14940208 -0.09484833 0.2586029
0.11013792 -0.02456827 0.30534923 0.15828896 -0.00035448791 0.17927212 0.10516427 0.14289899
0.19886208 0.13560392 -0.05392057 -0.07627763 -0.040411394 0.21625984 0.1629079 0.13093977
-0.10594511 -0.04487226 -0.13600476 -0.09046967 -0.12361462 -0.21098046 -0.04444867 0.25048393
0.16710702 0.16446741 0.08696683 0.05067563 -0.07470282 -0.23309231 0.025390744 -0.005744416
-0.21326998 -0.07206953 -0.27934077 0.047171596 0.08681778 0.12594764 -0.17651011 -0.24163981
-0.22842698 -0.13434681 0.21116525 -0.16711582 0.24716035 0.0881949 -0.22648197 0.0047197486
-0.14852667 0.17104222 0.10755832 -0.03974037 -0.2525685 0.1259362 0.27499726 0.021972874
0.03362426 -0.16822481 -0.013534936 0.29857415 -0.2611785 0.17566566 -0.19871725 -0.290711
-0.059755668 0.17007494 -0.15289085 -0.06900512 0.030261692 0.10730757 -0.28626394 -0.0692277
-0.13519019 0.27685836 -0.12739888 -0.003141346 -0.19656694 0.09546553 -0.22943583 0.18932271
-0.23928443 -0.19291475 0.22519633 0.08203721 0.064960875 -0.025600096 0.02240501 0.012268575
0.21777566 -0.19695854 -0.21608034 0.120392755 -0.2531641 -0.30530623 -0.055346716 -0.111705124
-0.048756387 0.16124448 0.028708385 -0.03591024 0.18952385 0.17911582 -0.14455429 -0.1726676
0.08090986 0.073942386 -0.15044898 -0.17735752 -0.17291196 0.23413359 -0.21378036 0.1507615
-0.090048276 -0.22073595 0.18256068 0.061114706 -0.09150212 -0.20724118 0.16198207 0.08410281
-0.18395513 -0.12694274 0.053349514 0.13199112 0.3062829 -0.06554653 0.40851408 0.062077668
0.2529537 0.3509756 0.21375185 -0.011871642 -0.030909868 -0.113979645 -0.033207513 0.12751032
-0.12016179 -0.07667749 -0.014612492 -0.29866394 -0.23200852 0.097157635 0.07870927 0.11187934
0.0036821282 0.19968109 0.041643977 -0.199543 -0.020404702 -0.26740274 -0.03582544 0.062275823
0.13308182 0.11747499 -0.31991506 -0.1527929 -0.04617702 -0.13865954 -0.02313199 -0.13982746
0.03844065 0.13407564 -0.20043494 -0.07976829 -0.20405078 0.15504901 -0.12433219 -0.029823165

layer1.bias f4 [64]
00000000: ae7b 483d b06d 1dbd db7e fabd 62a2 8cbd
00000010: 1582 fc3a dfa0 74bd ea1e 62be 0ade 573d
00000020: 1d27 fb3d f5c7 513e fcef 2dbe 764f 7a3e
00000030: e23a 69be 7b86 4c3e cb15 a3be 47c3 21bd
00000040: a413 30bd 763d 803e 7ac8 d43b bd6c 80be
00000050: d813 4e3e 68a7 b03c acc3 17bd 92e9 3cbd
00000060: b66d debd c6d1 67bc 9eab 3d3e d256 3d3e
00000070: 9de1 c33d a1e7 173e fe41 f83d cec9 033e
00000080: f6af 4fbe cd4a 35bd 8c55 fc3d b7a4 8bbe
00000090: 0ebe 0fbd 86f5 413e 55e7 dd3d a843 ee3d
000000a0: 27cb 5fbe 2bf0 d13d b8ae 493e bb83 6b3d
000000b0: e601 4abe 97bb 35be 646b 82be 483d d63d
000000c0: e863 75be 934f 01be f643 1fbd 4c5c 08be
000000d0: 7949 603d 83b4 573e eae7 9e3e 2fd6 0a3d
000000e0: 81d2 cebd bf1d 42bd 1b43 89be 9f5b b0be
000000f0: d66c 29be 2486 e6bc 5175 703e 3c7d 0bbe
0.048946075 -0.038434684 -0.12231227 -0.068669096 0.0019264842 -0.05972373 -0.22082105 0.052701987
0.1226332 0.20486434 -0.16986078 0.24444374 -0.22776368 0.19973175 -0.31852564 -0.03949287
-0.04298748 0.2504689 0.006493625 -0.2508296 0.20124757 0.0215642 -0.03705184 -0.046121188
-0.108607695 -0.014149135 0.18522498 0.1849015 0.09564517 0.14834453 0.12121962 0.12869951
-0.20281968 -0.04426079 0.12321004 -0.27274105 -0.03509336 0.18941316 0.10835139 0.11633998
-0.2185484 0.102508865 0.19695556 0.057498675 -0.19727287 -0.17747341 -0.25472558 0.10460907
-0.23963892 -0.12628011 -0.038883172 -0.13316458 0.05475757 0.21064954 0.3103631 0.033895668
-0.10098744 -0.04739165 -0.2680901 -0.344449 -0.16545424 -0.028140135 0.23482253 -0.13621992

output_layer.weight f4 [5, 64]
00000000: b3bd a1bb d350 883d e343 03bd dd59 2f3c
00000010: ffc1 403d 30b4 73bb b4b9 353e 1ed0 603d
00000020: 9d5b 033e d06a 293e eb94 393e b895 883c
00000030: a2d7 133e 0879 f23d 0517 b53d 66ea 8bbd
00000040: ba17 2fbd 009d 0d3a 4044 3abb 622a bb3d
00000050: c9bd 1dbd 40c6 c8bb 26a1 873d 7f2f 8639
00000060: 34e9 7ebd 8062 4d3d dc43 783d 10af 593d
00000070: b80e 51bd 353d b9bd 6cbd 62bd 7203 ce3d
00000080: 881b f83d 9378 033d beec 1ebc 4e1f 423d
00000090: 8021 a6bb 1f3a c63d bd77 c9bd 4f7e 9fbd
000000a0: 6551 2f3d 6538 a9bd 71f3 8dbc 3500 5d3b
000000b0: 5a0b c8ba 28bd 80bc 62cd 763c 6536 d2bc
000000c0: 0b9a 00bd 7936 a6bd e0aa c4bb a03b 363c
000000d0: 7131 a9bd 28f3 f53d 7088 033e b876 1f3d
000000e0: f17a c03b a1e3 333e 31b2 b73d 1961 c23d
000000f0: 50d5 d03d 7356 b33c ccc8 debd 7a05 5d3d
00000100: 64f1 dcbd 55e3 13be d5e6 1a3d 1e29 2abe
00000110: edd3 f9bc 5622 a73d 104f f1bd 375c 143c
00000120: 4ace 2cbe 08d5 36bc 528a febd 805e 30bd
00000130: 5363 34be 2eb8 8bbd 0dd0 423c 63d1 15bd
00000140: 3024 1ebd acd7 b23d ee22 ed3d a00a bb3d
00000150: 384f b53d 30db 00bd a0e1 cebc 73f4 81bc
00000160: b21e 6cbd 9412 933d 0469 793d aaae aebd
00000170: c80f 513d ab3c 893b 4235 d8bd 0c46 c73d
00000180: 7955 ac3d 2314 ffbc 96aa 49bd 5e98 f0bd
00000190: 2883 6abd 3aca f03c bdf1 693d c6c3 11be
000001a0: 66d1 903d 1bfe a43d 69f6 0dbd ed1a 633b
000001b0: 1f27 103d b427 b23d 076c 463c d908 e6bc
000001c0: b19f 9f3d e10f c1bc 30f3 58bd b0a3 f03d
000001d0: ec8b 263d 7460 39bd 2092 51be 9bbb b43d
000001e0: b44d 3a3d ff3a 60bd 42ad 32bd b8d5 6fbc
000001f0: c6eb 323d 157e 13bd e628 e4bd 2490 7a3d
00000200: 2120 adbd bf8c 413d ebc9 343c 02ba a7bc
00000210: 50b4 ca3c 5197 453d 2d2e 8e3d 536f 323d
00000220: 47ef 3b3d 0cf0 00be 35ed 603d 9411 343d
00000230: 4d0a 3e3c 9cf4 c93d 7ee4 bf3c ae32 e4bc
00000240: eca8 66bc a877 60bd a8ca 2ebd c0de 64bb
00000250: e857 f3bd a842 d63d d87b c33c 7ece f5bb
00000260: 7a95 0f3e 08b1 8abd 904f 4bbc 7494 c9bd
00000270: 9d76 133d 63aa 7d3d e21c c13d 5ea5 cf3d
00000280: ec94 c2bd c0ba 1abd f744 52bd 3bf6 eebc
00000290: d031 ccbd fd71 b63d cd99 d5bd a14f 663b
000002a0: 255d 9d3d 7853 f7bd 512d 3dbc 2f4f 56bb
000002b0: 7bea 80bc 9aaf ab3d 4e08 723c 7cb7 f2bc
000002c0: 40cb 223d fb03 44bd 2035 023c daed 863d
000002d0: 847f 5cbd 3e0c a0bd 1711 633d 55bc cf3d
000002e0: 4241 383d 29a5 d83d ba1d a63d 464b a13d
000002f0: b6d0 dd3c e1a3 70bd 6056 293c a50b 643d
00000300: 63fa e2bd b216 933d e989 44bd b471 953d
00000310: d6c9 ea3d bf73 83bc 16a8 3abd 63b3 24bd
00000320: eb01 a0bd 3d76 d2bd f24a 58bc 0262 b33d
00000330: cf19 c8bc 665b ccbd 682b a73d 228f 2b3d
00000340: 65b4 0abe 8059 b1bc 9474 f3bd bced ca3d
00000350: 1de3 503d 70f3 cb3d 0830 14bd 95c3 81bd
00000360: 83b4 79bd d369 023d 04b9 f43d 1ec0 a6bd
00000370: bda1 a83d fa91 ac3d 0454 703d 8899 b0bc
00000380: 9769 47bd 103d abbd aaba 61bc 98a9 a2bc
00000390: c8ad d43c 2088 ee3d 0eb1 25bd d6e7 e53b
000003a0: d9ac f43c 7a1f 10bd e32c dfba 323e 8dbd
000003b0: 7cce cbbc 10f5 9fbd 8ea9 703c 3d40 f1bc
000003c0: 8d4e 9fbc fea9 0bbd c0c5 a3bc 5e37 bcbd
000003d0: 8bba 4dbd fcb9 7fbd bec5 c63d 3d7e f8bd
000003e0: 2640 963d da48 6cbc 1e9b 463d fba2 483d
000003f0: acdb 55be cf0a 2a3e a068 903b 1224 523d
-0.004935944 0.06656041 -0.032047164 0.010702577 0.04706001 -0.0037186258 0.17746621 0.054885976
0.12827916 0.16544652 0.18123214 0.016672954 0.14437726 0.11839491 0.08842281 -0.06831817
-0.042747237 0.0005402118 -0.0028422028 0.09138943 -0.03851107 -0.006127149 0.066225335 0.0002559386
-0.06223412 0.050142765 0.06061159 0.05314547 -0.051039428 -0.090448774 -0.055356428 0.10059251
0.12114626 0.03209741 -0.009699998 0.047393136 -0.0050699115 0.096790545 -0.098372914 -0.07787763
0.042802233 -0.082627095 -0.017327996 0.0033722047 -0.0015262172 -0.015715197 0.0150636155 -0.025660703
-0.031396907 -0.081158586 -0.006001815 0.011122614 -0.08261383 0.12009269 0.12845016 0.03893158
0.0058740308 0.17567302 0.08969534 0.09491176 0.10196936 0.021891808 -0.10878143 0.0539603
-0.10788229 -0.14442189 0.037817795 -0.16617247 -0.030496562 0.08160846 -0.11782658 0.009055189
-0.16875568 -0.011159189 -0.12428726 -0.043058872 -0.17616014 -0.06822239 0.0118904235 -0.03657664
-0.03860873 0.087325424 0.11578928 0.09132886 0.088530004 -0.031459033 -0.02525407 -0.015863633
-0.05764646 0.07181278 0.060891166 -0.08529408 0.05104044 0.0041881404 -0.10557033 0.09730157
0.0841474 -0.031137532 -0.04923495 -0.11747812 -0.057253987 0.029393304 0.057115305 -0.14234838
0.070711896 0.08056279 -0.034658823 0.00346535 0.03519356 0.08698979 0.012110717 -0.02808039
0.077941306 -0.023567142 -0.052966297 0.11749971 0.040660784 -0.045258 -0.20465899 0.088248454
0.04548426 -0.054743763 -0.043622263 -0.014638357 0.043681882 -0.036008913 -0.11140613 0.06117262
-0.08453394 0.047253367 0.011034469 -0.020474438 0.024744183 0.04824001 0.06942401 0.0435632
0.04588249 -0.1259157 0.05491372 0.043962076 0.011599136 0.09861109 0.023424383 -0.027856197
-0.01407836 -0.054801613 -0.042673737 -0.0034922808 -0.11882001 0.104619324 0.023862764 -0.0075014224
0.14021865 -0.06772047 -0.012409106 -0.09842768 0.03600179 0.06193007 0.09429337 0.10138963
-0.09501061 -0.037775755 -0.0513353 -0.029170146 -0.099704385 0.0890846 -0.10429726 0.0035142677
0.076837815 -0.12076467 -0.011546449 -0.0032701006 -0.015736809 0.08383103 0.014772488 -0.029628508
0.039744616 -0.04785536 0.007947236 0.06588335 -0.053832546 -0.07814835 0.05543622 0.10143343
0.04498411 0.10578377 0.08111139 0.078756854 0.02707706 -0.058750037 0.010335535 0.055675168
-0.11082914 0.07182063 -0.047983084 0.07297078 0.114642784 -0.016046403 -0.045570455 -0.04021014
-0.07812866 -0.102764584 -0.013201462 0.08758928 -0.024426369 -0.0997837 0.08162576 0.04188455
-0.13545378 -0.021649122 -0.1188747 0.099086255 0.050997842 0.099585414 -0.03617862 -0.063361324
-0.060963165 0.031839203 0.119493514 -0.08142112 0.08233974 0.0842628 0.058673874 -0.021557584
-0.048684683 -0.08361256 -0.013777414 -0.01985626 0.025961772 0.116470575 -0.040452056 0.0070161624
0.029867576 -0.03518627 -0.0017026927 -0.068966284 -0.024878733 -0.07810414 0.0146888625 -0.029449577
-0.019446636 -0.034097664 -0.019991755 -0.09190248 -0.05022673 -0.062433228 0.09705685 -0.12133453
0.07336454 -0.014421666 0.048487775 0.048983555 -0.2088458 0.16605686 0.0044070035 0.05130393

output_layer.bias f4 [5]
00000000: e912 edbd f098 afbd 21ad df3c 8574 53bc
00000010: 48d2 fdbd
-0.115758725 -0.085740924 0.027304234 -0.012906198 -0.123936236
